stroke-model/model_stroke.onnx (onnx, 3983 bytes, 6 tensors)

StatefulPartitionedCall/sequential_1_1/dense_5_1/Cast/ReadVariableOp:0 f4 [8, 2]
00000000: a185 3bbf a35d 073f e678 f4bd 2d3e 433f
00000010: 8e54 3ebf 4579 b23e 89fe 983f f436 85bf
00000020: c3e2 bebf b99f b43f 373c 98bf 0fff 923f
00000030: 45a3 9ebf 4655 8c3f 80ef 7abf 8d13 803f
-0.73250777 0.52877253 -0.11937122 0.7626675 -0.7434777 0.34858146 1.1952678 -1.0407395
-1.4912952 1.4111243 -1.1893376 1.1484088 -1.2393576 1.0963523 -0.980217 1.0005966

StatefulPartitionedCall/sequential_1_1/dense_5_1/BiasAdd/ReadVariableOp:0 f4 [2]
00000000: f9b9 f33e 55b3 4dbf
0.47602823 -0.80351764

StatefulPartitionedCall/sequential_1_1/dense_4_1/Cast/ReadVariableOp:0 f4 [16, 8]
00000000: fbc0 80be 80c3 5e3e a734 173f 8179 c23e
00000010: fe3d 89be f2a7 643e ba9d 21bf 0f17 9b3e
00000020: 5048 963d a357 753e 75dc 34be 183a a1be
00000030: 052f 09bd a8bb 043e 0bc3 113f c998 c83e
00000040: 9b9a b9bf d4a3 d0be 7e50 52bf 2bf9 adbd
00000050: 1b36 47bf 4913 9fbe 976a 4abf 59bb 863e
00000060: a612 65be c52c c2bc aac2 2e3d 5ba1 7a3c
00000070: 8a8b 293f b474 683e f00b debc 9c1a ff3e
00000080: d47d 52bf b7d6 a4be 239c 2fbf 28ff 573e
00000090: 3424 e0be a8b4 61bf ee11 aabe 23e8 823e
000000a0: d7b8 26be aaab 253f f243 703f 7efc 1f3e
000000b0: 7c7d 1d3f fc94 663f 7709 e33e 51d8 28bd
000000c0: df79 c83c 546e 60bd d9da 00be 975e f83e
000000d0: 0c78 68bf 01c0 96be ab64 52bf 8e63 83be
000000e0: 0e9c 24bf 1ebc 84bf de7a b5be dd30 943f
000000f0: deb5 84bf 8885 a43e 6b67 6fbf 7212 97bf
00000100: 5f22 433e c806 22be 308e b2be 995e 093f
00000110: c903 09bf 0f22 5fbf cc8d 6a3e 9d70 1abf
00000120: fcc3 f33e c89f edbe 7db0 87be c977 2f3f
00000130: 216a 4c3e 27d3 4fbf 71f9 ecbd 26fd 04bf
00000140: 8ac6 97be c070 9d3b 24a0 2e3e d8b9 973f
00000150: 224d ad3e e3b6 84bf 2865 e2be 12f1 2ebc
00000160: 4f7c 6abf c649 1bbf 6dae 78bc 9ffb 593f
00000170: 3983 9cbf b3d5 033e ec6d 49bf c727 1dbf
00000180: c6c7 59be 0404 ac3e d61f b4bc e408 b93d
00000190: e222 a63e d2b7 c93e 7f77 c33e 9452 883e
000001a0: eb5a 8c3e a6ce 423e 9e3b 74be 007c 3d3f
000001b0: 8136 d63e 8f88 b03d 708e 463e ddbf 9bbe
000001c0: 7fd2 1c3f a995 3f3e d6e5 063f 87a3 463d
000001d0: e4b3 5b3d 3af0 95bd fe1f 7b3e cd4d d73e
000001e0: 53be 62bf fdee 3b3f f72a 6d3e d479 e0bd
000001f0: 0743 66be 1fb4 763d 3c13 3bbf d33b 8b3e
-0.25147232 0.21754265 0.59064716 0.37983325 -0.2680511 0.22329691 -0.63131297 0.3029103
0.07338011 0.23959212 -0.17662223 -0.31489635 -0.033492107 0.1296221 0.56938237 0.39179066
-1.4500307 -0.4074999 -0.8215407 -0.08494791 -0.77816933 -0.310694 -0.79068893 0.2631481
-0.22370395 -0.023702988 0.042666115 0.015297259 0.66228545 0.22700769 -0.027105302 0.4982499
-0.8222325 -0.32195064 -0.6859762 0.21093428 -0.4377762 -0.88166285 -0.33216804 0.2556773
-0.16281448 0.64715064 0.93853676 0.15623662 0.615196 0.9007108 0.4434316 -0.04122192
0.024472175 -0.054792717 -0.12583484 0.48509666 -0.90808177 -0.29443362 -0.8218486 -0.25661892
-0.6430062 -1.0369909 -0.35445303 1.1577412 -1.0368001 0.32133126 -0.9351718 -1.1802504
0.1905608 -0.158229 -0.34874105 0.5365997 -0.535214 -0.87161344 0.22905654 -0.60328084
0.47610462 -0.46410966 -0.26501837 0.6854215 0.1996236 -0.8118157 -0.11571015 -0.51948774
-0.2964366 0.0048047006 0.17053276 1.185359 0.3384791 -1.0368313 -0.442178 -0.010677593
-0.9159593 -0.60659444 -0.015178305 0.8514957 -1.2227546 0.12874489 -0.7868335 -0.6138882
-0.21267614 0.33596814 -0.021987837 0.09034899 0.32448488 0.39398056 0.38177106 0.26625502
0.27413115 0.19024143 -0.23850867 0.74017334 0.41838458 0.086197965 0.19390273 -0.30419818
0.6125869 0.18709435 0.5269445 0.048495796 0.053638354 -0.0732121 0.24523923 0.42051545
-0.8857166 0.7341154 0.23160921 -0.10960737 -0.22486506 0.06023037 -0.73076224 0.2719408

StatefulPartitionedCall/sequential_1_1/dense_4_1/BiasAdd/ReadVariableOp:0 f4 [8]
00000000: 53b3 183d 628e 793e 3024 473e 936a 933d
00000010: 6a4f ae3e 98f4 8d3e d313 903e 8aed 713e
0.037280392 0.24370721 0.19447398 0.07198062 0.34044963 0.27725673 0.28140125 0.2362577

StatefulPartitionedCall/sequential_1_1/dense_3_1/Cast/ReadVariableOp:0 f4 [10, 16]
00000000: 026d 07be 1333 1e3e 3091 ba3e 063b e4be
00000010: 5579 d0be 5670 f9be 3436 83be c5ad c83e
00000020: 5ca0 c83e 9435 62be 11a0 123f a900 153f
00000030: 2867 943e a801 fd3d 6ee9 ea3d 1b55 22be
00000040: e1c9 0f3f cc6a a13e 1a20 89be 4778 8e3e
00000050: 6893 bf3e 4a8b 9f3d 4da2 22bf 8221 58bf
00000060: ea9a 27bc beaf d3be 9662 1dbf ec96 8fbe
00000070: 3011 6dbe 0193 443f 96cf 8c3e 690a 6ebd
00000080: fcfd 8e3e 2b6d 523e ccf1 55bd 3a4a 243f
00000090: 1aac 8fbe e7ce 713c 4b14 ca3e 5bd9 fe3d
000000a0: cd8c 053f aae0 bd3e c262 5abd b620 953e
000000b0: 3b3a 33be ae89 40be f56e 9a3e 223e 42bf
000000c0: 6865 3b3f 3b14 35bf dfb2 383f 03b2 f5bd
000000d0: c3d2 603e fe0e d3be 0525 52be 0d0e 283e
000000e0: da3a e9bc dfe0 aa3e f740 44bf 370f 12be
000000f0: 8edc 46bd df19 b7be 5311 66bc beee 623f
00000100: fffe d93e 0aab bc3d 6a62 04bf 1ed7 b7be
00000110: c0a9 d3be 504c a3bd 722f 4ebd 9ad6 14be
00000120: c0f0 e83e d61b 303f bcde e43e d040 013e
00000130: 05bc b43e 0480 023f cb1b ab3d 0685 11bf
00000140: 41c3 c2be 37ef 7b3d f0b3 863d 1297 4cbe
00000150: 2f34 1f3f 7e3a 0ebf 6d2e 433e 3805 a23e
00000160: 7493 cdbd b597 013d c841 b0be 2bc6 2cbf
00000170: 8dcd 53bd 135a cd3d 449b c73e 0cbc 4ebf
00000180: c7cc b53d c17b 3f3d 2670 193e 4d4a 40be
00000190: 12a3 053d 631a adbd e19f d73e 1223 073e
000001a0: 0e15 853e 7196 363d 6a06 a8be 4124 253e
000001b0: 7c04 393e 6cbb 05be 2c5d a03e 6db2 2dbf
000001c0: 6867 143f 6c2d c6be fb7b 93be dddc 06bf
000001d0: c5eb cebe 1787 ae3d 0331 cc3e 65d6 fb3d
000001e0: 50bb c8bd 6f1c 0dbf e4d0 21be d7b4 4439
000001f0: 0120 d23e bf90 883d 3d0a d73e f31c 903e
00000200: 96b3 563e 0d7b 3ebf 0ffd b2be 2882 adbe
00000210: 1b8e 3ebe 3b4b 0ebf 3420 72be 1cf2 34bf
00000220: aa5f 013f 7ca1 a1be 3290 0b3f aa84 8dbf
00000230: 7551 8d3d e820 8dbd 8e4d 593e 49a3 d3be
00000240: dcbc da3d 79ae 8a3e aff0 0e3f 64d4 e63e
00000250: 1cf6 8a3e 1c56 7bbd 20c4 d73e c885 8dbd
00000260: 3501 4dbe e456 263e 434e 263e 4fe7 873e
00000270: 5a86 5abe 692b d1be 238d a73e 271d 093e
-0.13225177 0.15449171 0.36438894 -0.4457628 -0.4071757 -0.48718518 -0.2562729 0.39195076
0.39184844 -0.22090751 0.5727549 0.5820413 0.28984952 0.123538315 0.114703044 -0.15852778
0.5616742 0.31526792 -0.26782304 0.2782614 0.3741715 0.07790239 -0.635289 -0.8442613
-0.0102298055 -0.41345018 -0.61478555 -0.28044832 -0.23151088 0.7678681 0.27502126 -0.058115397
0.2792815 0.20549457 -0.05223255 0.6417576 -0.2806099 0.014758802 0.39468607 0.12443801
0.5216797 0.37085468 -0.05331684 0.2912652 -0.17502682 -0.1880252 0.30162778 -0.7587606
0.7320161 -0.70733994 0.72147936 -0.11996844 0.21955399 -0.41222376 -0.20521934 0.1641161
-0.028470445 0.33374688 -0.7666163 -0.14263617 -0.04855018 -0.35761926 -0.014042216 0.8864554
0.4257736 0.092123106 -0.5171267 -0.3590631 -0.41340446 -0.0797354 -0.050338216 -0.14534989
0.45496178 0.68792474 0.44701183 0.1262238 0.35299698 0.50976586 0.083549105 -0.568436
-0.38039592 0.06150743 0.06577289 -0.19979504 0.62189 -0.55558 0.19060679 0.31644607
-0.1003789 0.03163882 -0.34425187 -0.6748988 -0.0517097 0.10026946 0.38985646 -0.80755687
0.08876949 0.04674888 0.14984187 -0.18778343 0.03262622 -0.084522985 0.42114165 0.13196972
0.25992626 0.044577066 -0.32817394 0.16127111 0.18068117 -0.13059777 0.31321084 -0.6785038
0.57970285 -0.3870653 -0.28805527 -0.5268076 -0.40414253 0.0852186 0.39881143 0.12296752
-0.09801352 -0.5512151 -0.15802342 0.00018759385 0.41040042 0.06668233 0.42 0.28147087
0.20966944 -0.7440651 -0.34958693 -0.33888364 -0.18608896 -0.5558354 -0.23645097 -0.7068193
0.50536597 -0.31568515 0.545169 -1.1056111 0.06900302 -0.06891042 0.21220991 -0.41335514
0.10680553 0.27086237 0.55836004 0.45083916 0.27140892 -0.061361417 0.4214182 -0.069102824
-0.20019992 0.16244084 0.16240792 0.26543662 -0.21340314 -0.40853432 0.32724866 0.13390027

StatefulPartitionedCall/sequential_1_1/dense_3_1/BiasAdd/ReadVariableOp:0 f4 [16]
00000000: 3b18 ea3d 8255 c63e 6e0c debd 8cd4 eb3e
00000010: 6153 b5bd 5891 c43e 396a 19be 60f4 edbd
00000020: d886 43be 29bc 3dbe bc96 7b3e c48e 88bc
00000030: 55e4 a93d d552 c43d 1eb2 433e 5075 70bd
0.11430403 0.38737112 -0.108422145 0.46060598 -0.08853794 0.38392138 -0.14981927 -0.116188765
-0.19094408 -0.18528809 0.2456922 -0.016669638 0.08295504 0.095861115 0.19110915 -0.058705628
