obesity-model/model_obesity.onnx (onnx, 54386 bytes, 8 tensors)

StatefulPartitionedCall/sequential_1/dense_3_1/Cast/ReadVariableOp:0 f4 [32, 7]
00000000: e78a 19bd 4a32 8abc 7fef 6abf 42f9 28bf
00000010: 2686 23bf c854 bfbc 5ce7 24be 0791 2fbf
00000020: 5b47 36bf 624f 18bd 21ee 9dbb 3a05 79bd
00000030: e768 23bf 1cd8 04be 0603 813e f68f acbd
00000040: 2055 93be 7f0e f1bc a4d9 e03e 9a43 95bd
00000050: c1f6 2c3e 1b90 a03d 30ca de3d 138a dbbd
00000060: 353a 88bf 96d4 3fbf 5cb8 153e 60e4 9f3d
00000070: 87a0 8b3e cad3 933e a3a1 4abe 6d2e d0bd
00000080: 8908 aa3d bde1 bb3d 59eb 18bf 0f67 73bf
00000090: 9472 2dbf f5f9 583e d6f3 323e 5f22 453e
000000a0: 3a4f d73d fa9a 103e b045 43bd 8484 06bf
000000b0: fd34 9d3e e9b6 c13e 3f58 493e 18d4 2abf
000000c0: 577c 843d dda7 3c3e fd4f 3a3d b44a 51bf
000000d0: e2c1 1fbe 555c 793e 8837 5abe aa6a 26bf
000000e0: bf6c 4bbf 60f8 d0bd 08be e83c 1475 6f3e
000000f0: d7a9 67be 95ad c33d 5ab8 d63d eb79 5abd
00000100: b741 7dbe e441 c63d 4936 b93e 1fb0 f1bd
00000110: 52ac 3cbb b032 3cbe 763c aebd c361 a93e
00000120: 2c77 03bf ad88 5cbe 7b3f a1be c8ee 903e
00000130: 0ccd b23e e53f 5abf aa5d b1be 36f7 eb3d
00000140: c10b 513e e699 12bf ab13 4ebe 2005 8a3e
00000150: fb79 e0be b52c 113e 5eb4 59be 5c3c 783e
00000160: 5563 a3bd 728c d8be 8974 debe bccb a8bc
00000170: 62a5 88be 40e0 ddbe 345f aa3e 913e e73e
00000180: 9a53 91be f2ff 26bf 2146 66bd e02f b1bd
00000190: e15b 5fbd b551 33bf 97c0 34bf 447d 953c
000001a0: bb5f 473e f72d ab3e 33d9 a13e e457 8dbe
000001b0: eb05 0cbf 747b f5be 986d 8bbe 0c2f 14bf
000001c0: bb7a c13e 6665 79be 2e04 883e 1c52 c2bd
000001d0: 5ab6 debe 2100 87ba 8c85 22be 648c af3d
000001e0: 9705 9b3d e8f9 2dbf 51c6 f9be 692a c83e
000001f0: 307d de3b 7c6b 33be 862f 853e 23af 713e
00000200: 8fa5 b8be 5f82 4ebe 56ff 00be ab2d bdbe
00000210: 2c45 05bf 9a51 4abf 4bf9 9abd 45e2 9c3e
00000220: c88c 56be 3161 923d a27f 573e e779 50be
00000230: 5117 2b3e 340b 6dbe 49a8 55bc ca0d 81be
00000240: 3a0f a2be bf1b e1be 6391 3dbe ba50 fb3e
00000250: 2477 c9bd 813c 58be 454f 073d a9df 943e
00000260: 61da 5ebd f0d5 c0be d602 af3c 0383 61be
00000270: b3bd 043f 013b 93be d65b 113f d33a 69be
00000280: 9618 d5be 1efb b6bd b163 8dbe 353e ee3e
00000290: 3e17 23be 5730 a2be 9233 08bf fbbd e83e
000002a0: 472c 963e 569f 3e3e 56ba 39be 5f56 5bbe
000002b0: 4c46 2bbe faad 31bf 03e5 13bf bb29 95be
000002c0: a4c8 983d 8eb7 d0bd f8da 57be 7664 1d3f
000002d0: afd7 debd db4a 18bd 253e 493e 5dd2 5a3e
000002e0: 394f 38bf bbb4 30bf 2bf2 f4be 87b8 703e
000002f0: cfe6 5a3e e998 a2be d6d7 6fbb fe94 723e
00000300: fc66 c5bd 9712 09bf 81fb 7c3e 0bb5 3fbe
00000310: 723e 51bd 1d2b a63d 5f78 953e 90ab 80be
00000320: 5504 0c3f df28 57bd b4aa b9be a5b6 b9be
00000330: 40d6 c2bc 7657 863e 4e19 8fbd 163c 123d
00000340: 67dc 9d3e 2d60 133e 0f67 82bc 592e 0b3e
00000350: 1212 043e d3a4 36bf 626b 38bf 92dd 7d3e
00000360: 6f08 6c3e 499d b43e 7738 6bbe 7182 87bc
00000370: 2f6b c0bd e6e8 c53d 3bdf 46be 8f4b 4a3e
-0.037485983 -0.016869683 -0.9177169 -0.6600534 -0.6387657 -0.023355857 -0.16103882 -0.6858067
-0.7120263 -0.03718508 -0.004819647 -0.060796 -0.63831943 -0.12973064 0.2519762 -0.08425896
-0.28775883 -0.029425858 0.43916047 -0.072882846 0.16891004 0.07839986 0.10878408 -0.10719695
-1.0642763 -0.74933755 0.14621109 0.07807231 0.2727091 0.2887252 -0.19788222 -0.10165105
0.08302409 0.091739155 -0.5973411 -0.9507913 -0.6775296 0.21189101 0.17475829 0.19251393
0.10513158 0.14121619 -0.04767388 -0.5254595 0.3070449 0.37834862 0.1966257 -0.6672988
0.064690284 0.1842341 0.04548644 -0.8175461 -0.15601304 0.24351628 -0.21310246 -0.65006506
-0.7946281 -0.10203624 0.028410926 0.23384506 -0.22623383 0.095545925 0.10484381 -0.053338926
-0.247321 0.096805364 0.3617423 -0.118011706 -0.0028789234 -0.18378711 -0.08507626 0.330824
-0.51353717 -0.21536513 -0.31493744 0.28307176 0.34922063 -0.85253745 -0.34641773 0.11521761
0.2041464 -0.5726608 -0.2012469 0.26957035 -0.43843064 0.1417721 -0.21260211 0.24241775
-0.079779305 -0.4229465 -0.43448284 -0.02060496 -0.26688677 -0.43335152 0.3327576 0.45164922
-0.28384095 -0.6523429 -0.056219224 -0.086517096 -0.054530982 -0.7004655 -0.7060637 0.018248208
0.19470112 0.33433506 0.31611022 -0.27606118 -0.5469653 -0.4794575 -0.2723205 -0.5788429
0.37788948 -0.24355087 0.2656569 -0.09488317 -0.43498498 -0.0010299721 -0.15871257 0.08571699
0.075694256 -0.6795945 -0.48784116 0.39094856 0.006789826 -0.17521471 0.2601282 0.23601966
-0.3606381 -0.2016692 -0.12597403 -0.36948904 -0.5205867 -0.79030764 -0.0756708 0.3064138
-0.20952141 0.07147444 0.21044782 -0.20359002 0.16708113 -0.23148805 -0.013040611 -0.25205833
-0.31652242 -0.4396648 -0.18512492 0.49085027 -0.098371774 -0.2111683 0.03303458 0.2907689
-0.05440748 -0.3766322 0.021363657 -0.22022633 0.5185196 -0.28755954 0.56780756 -0.22776346
-0.4162032 -0.089346156 -0.2761512 0.46531835 -0.15926835 -0.31677505 -0.5320369 0.45457444
0.29330656 0.1861547 -0.18137488 -0.21419667 -0.16726035 -0.6940609 -0.5777132 -0.291334
0.07460144 -0.1019126 -0.21079624 0.61481416 -0.10880982 -0.037180763 0.19652613 0.2136931
-0.71995884 -0.6902577 -0.4784101 0.23507892 0.21377109 -0.31757286 -0.0036597154 0.23689649
-0.09638783 -0.5354399 0.24705316 -0.18721406 -0.051084943 0.08113692 0.29193398 -0.25130892
0.5469411 -0.052529212 -0.3626305 -0.3627216 -0.023783803 0.26238602 -0.06987248 0.035701834
0.30832216 0.14392157 -0.015918283 0.13591899 0.12897518 -0.7134525 -0.72038853 0.24791554
0.23050092 0.3527625 -0.22970758 -0.016541691 -0.09395444 0.096635625 -0.19421093 0.19755386

StatefulPartitionedCall/sequential_1/dense_3_1/BiasAdd/ReadVariableOp:0 f4 [7]
00000000: b63f 02bf 887a aa3b 6470 213e 3d25 cc3d
00000010: 4b21 a1be 407a 953d 09db 843e
-0.50878465 0.005202595 0.1576553 0.0996804 -0.31470713 0.07298708 0.2594836

StatefulPartitionedCall/sequential_1/dense_2_1/Cast/ReadVariableOp:0 f4 [64, 32]
00000000: ad6f 643e ca1b 0f3e 6267 c63d 924c 9e3e
00000010: a4b8 bb3d 5a9c 6abd 7bc1 14bc ae79 243e
00000020: 06a6 a73d bc5e c2bd 15ea a43e 2179 ae3d
00000030: eb42 02be e581 43bc b4ab dd3e 48b3 763e
00000040: bd75 c7bc f2c1 b4bc cff7 373e 2bc2 8a3c
00000050: 608c 24bd 73ec bf3d 626e aebe 870e 3e3e
00000060: 3f10 c23c 7f3f 99be 853f e43e 9728 8fbe
00000070: 3a67 94be 2423 c0bd c29f 3d3e 5cb9 f93d
00000080: 6724 283f 910b 1cbf 778a 133e a32e 953e
00000090: 544e e93e 485d 3dbe 7c23 9cbe 3cb0 e7bc
000000a0: 6c46 dbbc 0739 a9bd fa2c fe3d eb11 1abe
000000b0: f845 8b3d be54 78be 1e5a d2be 448e 2e3e
000000c0: 14aa 83bc 5184 f73c a823 1a3e 93a6 fe3d
000000d0: e3d0 e03d 2dd8 063c 103a bbbe 5065 10bf
000000e0: 8a63 273e e219 1a3e 5789 103d 779a 433e
000000f0: e8b1 643c 41ad 9dbc 15fc 26be 2b3e 3c3e
00000100: afcf 22bd 83dc 063e 3dba 81be 1e1f eb3d
00000110: 82ac c93d 90ff b83d 79aa 913e 6ba9 11be
00000120: 845a 99bd 539f 3f3e a099 803d a8f0 413e
00000130: ce3a 043e 5431 093d d866 6f3d a4a1 87be
00000140: 41f1 383e 8ec3 b7be fbe2 aabe 65d6 41bd
00000150: 3072 b23c d41c 0abe a4d1 aabb 3b3c 5c3e
00000160: 22e6 90be ec8f 60be b520 2f3e 2d7f 10bd
00000170: 7342 6ebe c69f 8ebd df23 283e 791e 83be
00000180: caa8 f0bd a277 3e3e 6290 a7bd a79e 81be
00000190: 2f41 0ebe 40d5 5cbe c7b4 503d ca5b 903e
000001a0: 97bf a13e 113b d73e 67e9 90be 7596 883e
000001b0: 446f 413e eed2 493e b585 94be 4714 383e
000001c0: e665 31be 4462 043e b717 053d 161e 6dbe
000001d0: c3ec 2f3e 55aa 3f3d 5e23 f6be bc6b 14bf
000001e0: ee7c f8bd 5d68 95be 4014 93be d5eb 163d
000001f0: 5331 9cbe 2ce0 a0be f4e7 6ebe a4c8 583e
00000200: 4121 023e 2011 98bd c993 0cbe 0fa6 983e
00000210: f6e8 313e b6de e03c eee7 2dbe e4f2 f93d
00000220: b310 893d d917 72be a7df 483e 9974 d0ba
00000230: 7b2b 7fbe acbf 52be e7f7 d83e b2b5 f8bd
00000240: e885 873d 7fbe ba3e 30f8 183e 62b3 5abc
00000250: d348 aa3d a925 8ebb 0d38 8abe 62a0 d7bd
00000260: f57b 213e 3d83 0dbd fffb 323e 9fcb a6bc
00000270: c136 d0bd d70f e83d 8d2c 723e a564 db3d
00000280: cb33 a13e f5e0 84be 6fbe 90be ecc3 803e
00000290: 7a3f 15be 6880 4cbd 6c4b 29be 25b8 3a3e
000002a0: 015b 8c3e fbc6 a73e 9672 303e 3fcf 3fbe
000002b0: fdc9 943c 902a e23d 7adb 91be fe97 71be
000002c0: 0941 5d3e 2678 0b3e bfc8 82be b255 aa3e
000002d0: b78e 34be 5e03 09be 6d1e 10be f525 49be
000002e0: 98be e03c 88f6 b7be 3bde e03d ea27 753e
000002f0: 4840 73be f7c6 bd3e 7c69 4c3e 7a45 463e
00000300: 70f9 e73d c267 be3e 265a 17be 9f47 9fbe
00000310: 5f91 30bd 2680 01be 5a75 b83e b694 f43e
00000320: 26fa 4e3e 30e0 a03e d908 92be 4daf c6bd
00000330: 69ac df3e 7b48 d93e ffdb c5be 10fd a73d
00000340: be62 adbd a5f7 60bc 0704 66be f105 debe
00000350: bae1 193e 5134 e43c 7d24 a6bd e451 1abf
00000360: 6476 8b3d 4b4d 8f3e d71e 36bd 6256 57be
00000370: e10f 353e ff09 c8bd 3254 ebbe 32ef da3d
00000380: 1b82 d2bd 2d8a 793e 1c6c f43d 4e10 d43d
00000390: 7a84 d1be 7f1e 273e 82d4 723e 3c6a 56bd
000003a0: fa98 7b3e 2f9c 283e 6732 acbd 7aa6 1d3e
000003b0: 142e f7bc 0508 c93c bcc6 2a3d 545d 12bf
000003c0: b278 583e 2848 823d 1822 05bf 1b68 ffbd
000003d0: d9f0 033e 1714 2dbe 0d4e f83c 3b75 973d
000003e0: 6a93 e0be 392b f2bd 6bae ecbd 69c1 1c3c
000003f0: dc65 ea3d cb07 1c3e 77a2 6abd 5763 03be
0.22308226 0.13975444 0.096876875 0.30917794 0.09166077 -0.057278015 -0.009079332 0.16062042
0.08185963 -0.094907254 0.3220984 0.08519197 -0.1272084 -0.011932825 0.43295062 0.24091828
-0.024348134 -0.022065137 0.17965625 0.01693829 -0.040172935 0.09371271 -0.3406859 0.18560229
0.023689387 -0.29931256 0.44579712 -0.27960655 -0.28985006 -0.093817025 0.18517974 0.121935576
0.65680546 -0.6095515 0.14408289 0.29137143 0.45567572 -0.18492615 -0.30495822 -0.028282277
-0.026766978 -0.0826283 0.12410922 -0.15045898 0.06800455 -0.24251077 -0.4108438 0.17046458
-0.01607231 0.03021446 0.15052664 0.12434115 0.10977342 0.008230251 -0.36567736 -0.5640459
0.16346565 0.15048936 0.035287227 0.19101892 0.013958432 -0.019247653 -0.16307099 0.1838309
-0.039748844 0.13170056 -0.253374 0.114805445 0.098473564 0.0903312 0.28450373 -0.14224784
-0.074879676 0.18713121 0.06279302 0.1893946 0.12913057 0.03349431 0.05844769 -0.2649051
0.18060781 -0.35891384 -0.33376297 -0.047323603 0.021782964 -0.1348756 -0.0052129794 0.21507351
-0.28300577 -0.21929902 0.1710232 -0.035277534 -0.23267536 -0.06964068 0.16419934 -0.25609186
-0.11750944 0.18600324 -0.08181836 -0.25316355 -0.13892053 -0.21565723 0.050953653 0.2819503
0.31591484 0.42037252 -0.28303072 0.2667729 0.188901 0.1970937 -0.2900826 0.17976485
-0.17324027 0.1292811 0.03249332 -0.23156008 0.17180161 0.0467933 -0.48073858 -0.5797689
-0.121332034 -0.29181185 -0.28726387 0.036846 -0.3050638 -0.3142103 -0.2333067 0.21170288
0.12707998 -0.07425141 -0.1372825 0.29814193 0.17374024 0.027449947 -0.16983005 0.12204531
0.06692638 -0.2364191 0.19616567 -0.001590389 -0.2491893 -0.2058093 0.42376634 -0.12144031
0.066173375 0.36473462 0.14938426 -0.013348432 0.08314671 -0.0043379855 -0.26995888 -0.105286375
0.15769942 -0.034548987 0.17478941 -0.020360766 -0.101666935 0.11331146 0.23649807 0.10712556
0.31484827 -0.2595288 -0.2827029 0.25149477 -0.14574996 -0.049927145 -0.16532677 0.18234308
0.2741318 0.32768998 0.17231211 -0.18731402 0.018162722 0.110432744 -0.2848776 -0.23593137
0.2160684 0.13620052 -0.25543782 0.33268505 -0.17632566 -0.1338019 -0.14074107 -0.19643386
0.027434632 -0.35930276 0.10979887 0.23941007 -0.2375499 0.3706586 0.19962114 0.1936244
0.11326873 0.37188536 -0.14780483 -0.3110933 -0.043107387 -0.12646541 0.36027032 0.47769707
0.20212612 0.3142104 -0.28522375 -0.09701405 0.43686226 0.4243811 -0.38644406 0.08202565
-0.08466099 -0.013730918 -0.22462474 -0.43363908 0.15027514 0.027856978 -0.08112428 -0.60281205
0.068096906 0.27988657 -0.044463005 -0.21029046 0.17681839 -0.097675316 -0.45962673 0.10690154
-0.10278722 0.24369116 0.11934683 0.10354672 -0.40921384 0.16320227 0.23713878 -0.052347407
0.24570075 0.1646583 -0.08408051 0.15395537 -0.030173339 0.024539957 0.041693434 -0.5717366
0.21139792 0.06361419 -0.5200515 -0.124710284 0.12884845 -0.16902195 0.030310655 0.07395407
-0.43862468 -0.1182465 -0.11556705 0.009567597 0.114452094 0.15237348 -0.057283845 -0.12830864

StatefulPartitionedCall/sequential_1/dense_2_1/BiasAdd/ReadVariableOp:0 f4 [32]
00000000: 31fb e83d 30ef 783e fa38 7fbe e5b4 423e
00000010: 77bb 2cbe 0cab 913e 4f01 133e 4b66 46be
00000020: b2ec 943e b4de 863b bbfd 503e 94bd a43e
00000030: fe86 a8bc e93a f0bd 0ec8 873e 23d0 d5bd
00000040: d676 8dbd 4045 02be 05be 11be 1056 d83d
00000050: 2f7b 7fbe 6d42 30be 733f 823d 34d2 783e
00000060: 7067 20be fa32 b6bd f8de 353e 2c01 9a3d
00000070: e4fa 8aba 1899 5f3e 09a5 9d3e caf4 1cbe
0.11376036 0.24309993 -0.24924079 0.19014318 -0.16868387 0.2845081 0.14355968 -0.19374959
0.29086834 0.0041159038 0.2040929 0.32175887 -0.020572182 -0.11729986 0.26519817 -0.104400896
-0.06907432 -0.1272173 -0.14232643 0.1056329 -0.24949335 -0.1721284 0.06359758 0.24298936
-0.15664458 -0.08896442 0.17760837 0.07519755 -0.0010603336 0.21835744 0.30789974 -0.15327755

StatefulPartitionedCall/sequential_1/dense_1_2/Cast/ReadVariableOp:0 f4 [128, 64]
00000000: def9 38be e03e 393e 5b08 973b 89bf 49be
00000010: 965f 863d d68f 08bd e68b 31be 697e 303e
00000020: 98a8 20be 8d65 663e d129 75be 2b47 5b3c
00000030: 441f 803e b6c0 f43d 62ec 15be b2d4 5bbe
00000040: aa95 d6be 9882 fb3b 8092 76bc 04d3 e4be
00000050: 5cd0 52bd 66f8 3cbe b8c9 c73d f5fd c63c
00000060: f3aa 013e 97ed 103e 5851 ec3d bf1d 8cbe
00000070: d39b 913e 2bd7 59be 1779 ad3c 7bf4 cabc
00000080: 0884 c63c acf0 073e d737 b73d ad4a ac3d
00000090: 1d35 08bd 2564 b43d a3a3 35be 4a04 eabd
000000a0: 6715 a2bd c2ab c7bd a2ad 943e 5e2b afbd
000000b0: 9d7c cbbd 4b97 a13d d7ef a8ba 941c ed3d
000000c0: 6dc3 14bd 46b0 2a3e 81bb e23d d822 4fbe
000000d0: 8bb4 8c3e 9e2d 0f3d 4bd1 16bd 99ad c93d
000000e0: 6342 543e b823 d2bd 0d08 603e 6410 1d3d
000000f0: 1577 a63d fd22 91bd 4d85 34bd 5094 593e
00000100: 46a3 28bd 1bad be3d 9cf2 cfbc 9531 6cbe
00000110: 479b 0b3e 9b61 203e 693b 5bbe 621a 6d3d
00000120: 4c8b 87bb eb7c cebd c679 ee3d d00d 213d
00000130: 0865 b63d d267 49bd 375f 283e 3fb8 843e
00000140: 419b 263e 239c f4bc cd1d e73d e25c 0ebd
00000150: cdf3 223b b1f0 953d c65a 67bd 102e d5bd
00000160: 81ed 68bd 9cdd c5bd 8bce 633d 6ce8 ccbc
00000170: 9dbd ccba d45d 7f3d 2d53 1b3e f3fe e0bc
00000180: 7069 dc3d db46 013e dca1 753d 4e27 3a3e
00000190: 93c4 f33d 990f b33d 6504 b63d 8dcf 1b3e
000001a0: 4d65 253e bb0e 133e 4dbf 103e 937f fdbb
000001b0: ea0a 91bd 2587 bb3d 6da9 b8bd 9929 2d3e
000001c0: 7277 f53d 6457 a83c feb1 08be c592 5abe
000001d0: f2c9 943d 6a85 013e 8a4c b0bb 1538 223d
000001e0: 7b5f 08bd ad1a 0d3e 41c2 893c 9108 7ebd
000001f0: 1d1a 09be d819 19bc 294d cc3c ff03 13bd
00000200: 9653 bebd 3a43 283e fc14 b4bd 8d14 87be
00000210: d229 8d3d 9b02 33bd cfef 14be 0c5f 513e
00000220: f0f7 d03d 3c66 993e 7198 22be 6d16 1f3e
00000230: c4a1 ed3d 9364 3ebe 58dd a8be 8088 f0bd
00000240: ab86 35be 795b 9dbe d683 98be ab8c 51be
00000250: 72ab b63e 4afd 68be f90d 353e ed1e 113e
00000260: a964 77be 5f51 cc3e b30d 26be 9db7 3bbe
00000270: 3bc5 893e fca4 323d 64e0 14bd 9302 adba
00000280: 0b8f 1c3d 41e9 00be 19cb abbd a956 d6bd
00000290: 3fc3 6d3c 9a35 36be f578 133e a7ee b73e
000002a0: 38ee 153e c1c2 073e 98bd 603e ff13 fabd
000002b0: 3e1c 0dbe f638 97bc 53c7 e83c 6bde e3bd
000002c0: 0581 18bd 45ab 653e 1d33 a2bd 80eb 47bd
000002d0: 6c37 183e 977d 83be 31a2 b23c ef6a 16be
000002e0: e02c 673e 7e24 a43e f03a e1bd 1669 38be
000002f0: 2f33 653e f9b3 bb3d 7cf7 5c3e da8e 563e
00000300: 8fae a13b d30e 3b3d 3256 a73d a68e 3bbd
00000310: d86e a83c 9494 ab3d a29a e93d 40c6 0a3d
00000320: 0587 223e 6d23 303d 4b99 0d3e 67c0 233e
00000330: a722 bebd 2306 aa3d 6e1e c8bc 183f 37be
00000340: 33d0 ec3d aa42 d8bd 3529 8dbd 6b24 843e
00000350: 9a59 33bd 2924 d8bc ab10 3dbd 151e 76bd
00000360: 54d8 da3c 5015 4ebe 656a 953d 3a2b 523d
00000370: cc03 1abc 2928 943d 2fdb 81bd 96ac 463e
00000380: 2203 6bbe cfaf 6bbc 7374 f73d 795f 6bbe
00000390: 9bc7 abbd a78d b73d 8abe 84be 65c8 91be
000003a0: 52c5 5c3d c8fb 043e 7088 22be 2a49 90be
000003b0: 869e a0bb c062 9fbd cbcd d1bc e632 993d
000003c0: 9fe0 be3d edf8 39bc 4c0e 073b f084 993d
000003d0: 32b4 f23d b7de a33d c950 333e ed6e 91bc
000003e0: 0310 6c3d 565d 2dbe fd63 20be d21c 433e
000003f0: 400b cd3c 9274 0dbd 53fc 933c 7a92 d0bc
-0.18064067 0.18090391 0.0046091503 -0.19701971 0.065612 -0.033340298 -0.17338523 0.17235722
-0.15689313 0.22499676 -0.23941733 0.013383667 0.25023854 0.11950819 -0.14640954 -0.21467856
-0.4191106 0.00767548 -0.015049577 -0.44692242 -0.05146824 -0.18454131 0.09755272 0.024291018
0.12662868 0.14153133 0.115389526 -0.27366444 0.28439197 -0.21273486 0.021175904 -0.02477478
0.02423288 0.13275403 0.089461975 0.08412681 -0.033253778 0.088081636 -0.17738204 -0.11426599
-0.079142384 -0.09749557 0.2903872 -0.085531935 -0.099358775 0.07890185 -0.0012888861 0.115777165
-0.036319185 0.16668805 0.1107092 -0.20228136 0.27481493 0.034955613 -0.03682069 0.09847564
0.2072845 -0.10260719 0.21878071 0.03834571 0.08128182 -0.070867516 -0.044072438 0.21247983
-0.041171335 0.09310361 -0.02538424 -0.23065789 0.13633452 0.15662234 -0.21409382 0.05788649
-0.0041364785 -0.1008242 0.1164432 0.039319813 0.08905989 -0.049171276 0.16442572 0.2592182
0.16270162 -0.029859608 0.11284981 -0.03475655 0.0024864555 0.07321299 -0.056483053 -0.10409176
-0.056867126 -0.09661409 0.055616897 -0.025013171 -0.0015620474 0.06234534 0.15168448 -0.02746532
0.10762298 0.12624685 0.059968814 0.18179056 0.11902728 0.087432094 0.08887557 0.15215893
0.16151924 0.14361088 0.14135475 -0.0077361553 -0.0708216 0.09156636 -0.090166904 0.169104
0.11985673 0.020549484 -0.13349149 -0.2134505 0.072650805 0.1264855 -0.005380218 0.039604265
-0.033294182 0.13779707 0.01681626 -0.06201989 -0.13388868 -0.009344541 0.024939137 -0.035892483
-0.092932865 0.16431895 -0.08793065 -0.26382867 0.06892742 -0.043703657 -0.14544605 0.20446414
0.1020354 0.2996081 -0.15878464 0.15535899 0.1160312 -0.18593054 -0.32981372 -0.11744785
-0.17727153 -0.3073385 -0.29788083 -0.20463817 0.35677677 -0.22752872 0.17681111 0.14171953
-0.24159493 0.3990583 -0.16216163 -0.18331762 0.26908287 0.043614373 -0.036346808 -0.001319962
0.038222354 -0.1258898 -0.08388347 -0.10465748 0.014511882 -0.17793885 0.1440161 0.35924265
0.14641654 0.13257886 0.21947324 -0.12210845 -0.13780305 -0.018459778 0.028415358 -0.11126407
-0.037232418 0.22428615 -0.07919905 -0.048808575 0.14864892 -0.25681755 0.021805855 -0.1468923
0.22575712 0.3205909 -0.109975696 -0.18008837 0.22382806 0.091651864 0.21578783 0.20952931
0.004934139 0.045668434 0.08170737 -0.045790337 0.020560667 0.083779484 0.11406447 0.033880472
0.15871818 0.043002535 0.13828008 0.15991364 -0.09283953 0.08301952 -0.024428573 -0.17895162
0.11563148 -0.1055959 -0.06892625 0.25809035 -0.043786623 -0.02638443 -0.046158474 -0.060087282
0.026714481 -0.20125318 0.07295684 0.051310755 -0.009400319 0.072342224 -0.06340634 0.19401774
-0.22950414 -0.014385178 0.12082758 -0.22985639 -0.08387681 0.08962565 -0.2592662 -0.284732
0.053899117 0.12986672 -0.1587236 -0.2818082 -0.00490171 -0.07782507 -0.025610825 0.07480411
0.09320187 -0.011350852 0.0020607887 0.07496059 0.11850776 0.08001464 0.17511286 -0.017753089
0.057632457 -0.16930136 -0.15663143 0.19053963 0.025029778 -0.034535 0.018064654 -0.02546047

StatefulPartitionedCall/sequential_1/dense_1_2/BiasAdd/ReadVariableOp:0 f4 [64]
00000000: 5c88 f83d a05c c9bd 11b9 ea3d c229 b7bd
00000010: 325c 983d e8ce 413d a9ba 0abe ce27 253e
00000020: 63b8 463e 3d4b 32bd c13a bebd a583 3c3e
00000030: d867 cbbd 694a c73d 74c7 e33d f877 e4bc
00000040: 27ec 2b3d a1f7 bebd 6666 7f3d 1256 573d
00000050: 6fcb c23c ec9f 2e3e 27aa 1a3e 8cef 6fbd
00000060: 27d9 2cbe 31d9 f13c 3b13 6bbd 6884 20be
00000070: b750 cebd 19d6 49bd 6629 aabd 7c42 433e
00000080: c402 f4bd c26c d13d ff4d 17be c84b cabd
00000090: 64ed 10bd 9131 41be f1b2 283e e3f9 673d
000000a0: c971 54bc 76f0 f13d 0d0b ea3d a261 01be
000000b0: 7aae dabd e9eb 4bbe 7bf8 0bbe 14f4 943d
000000c0: d244 e13d c347 8cbc 1e75 f03c 4a8d e4bd
000000d0: 6501 97bd 04ea 1d3e 9bf4 233b c837 babd
000000e0: 32f5 25bd 680d 073e d69a c63c 21bf da3d
000000f0: 9244 6b3d ec06 523e aafc 423e 9e51 d4bd
0.121353835 -0.0983212 0.1146108 -0.089435115 0.0743946 0.04731646 -0.13547768 0.16128466
0.19406275 -0.043528784 -0.0928855 0.18409593 -0.09931916 0.097309895 0.11122027 -0.027889237
0.04197326 -0.09324575 0.062353514 0.052572317 0.023778645 0.17053193 0.1510397 -0.05857806
-0.16879712 0.02952251 -0.057391386 -0.15675509 -0.10073989 -0.049276445 -0.083086774 0.1906833
-0.1191459 0.10225822 -0.14775847 -0.098777354 -0.035382643 -0.18866564 0.1647451 0.056634795
-0.012966582 0.118134424 0.11427889 -0.126349 -0.1067781 -0.19914211 -0.13669007 0.07273117
0.109994546 -0.017124062 0.02935272 -0.11159761 -0.07373313 0.15421301 0.0025017622 -0.09092671
-0.04051704 0.13188708 0.024243753 0.10680986 0.05743844 0.20510453 0.19041696 -0.1036713

StatefulPartitionedCall/sequential_1/dense_1/Cast/ReadVariableOp:0 f4 [16, 128]
00000000: e4b2 8abe 3672 e63d 62a6 7e3e 5552 e43c
00000010: 4772 613d fdb8 90be 4c58 f3bd 894c 53bd
00000020: 3d65 fa3d 8306 12be b305 ff3a bf0b 66bc
00000030: f303 8cbd 7a4a d7bd 3f9b e53d 0f7a ba3d
00000040: 016f 343e b71e c8be 243a 91bc d47a 07be
00000050: 2103 6fbe 3863 7abd 503b 5abe 4238 cdbd
00000060: fc26 98bd a839 43bd cde4 d1bd 9da9 9b3d
00000070: 1d53 8ebe 6f77 433e 8341 953e 3d4f bbbd
00000080: 3bdf 8dbe f588 7e3e 0303 d73d 2860 4d3c
00000090: da84 a23d 7e01 813d 4398 8fbd c2da 123e
000000a0: 4a60 4bbe 2f6c 15be 05cb e5bd 6978 9d3d
000000b0: dee4 cd3c 9e91 313e 19af d0bd df3b 10be
000000c0: 68a8 6c3e 2630 b4be bc2c 1e3c ff2f b3bd
000000d0: cc9b 84bc b9c4 2cbe bffb ec3d b591 ca3d
000000e0: 0bcc 893d c668 4dbc ca8b a2ba 1603 0dbe
000000f0: eaba 10bc 8ef2 0dbd bf78 693e 18c7 54bd
00000100: e580 9e3e 3b50 32be b279 5a3e 21bd d6bc
00000110: 901b 39be bf4f efbc ba69 683d c25c 653d
00000120: ac55 0abe 5286 ee3d 9120 283c 28a5 223e
00000130: b5f6 aebd b385 0bbb 0def d23d f8d7 0abc
00000140: 3bae bfbc 16d5 da3d 54f2 5a3e 909f 283e
00000150: a759 a2be 81a3 9d3d 1a67 f7bd 0d77 43be
00000160: e9a1 b9bd 667e a83d ccbb 6b3e d7e4 1fbc
00000170: 0310 0a3d 4182 cebe 99de 4c3d ef9d debd
00000180: b708 fd3c 3ded 7abd 6df5 cfbd 324a e0b9
00000190: 173a c7bd 31bc a5be a788 59be 9f2c 8a3d
000001a0: fb78 f9bc 7416 4c3d 63a1 483d df21 c43d
000001b0: b616 0bbe fdb7 07be 07ef 513e 0e75 ddbd
000001c0: b4e3 0c3e 826d c53d 0d96 9ebd 6506 e7bd
000001d0: 8910 f0bd def7 9abd 17ca 12bd f204 823d
000001e0: d864 11be 913f 873d 9fe0 e03d 0741 5b3e
000001f0: 6a0d 823b d01b 0cbe 12b9 e13d 699e ed3d
00000200: aa08 cf3a 62a5 08be b2f3 71be 8664 b03e
00000210: 6026 743e 7e64 0bbe 6fdc 7c3b 1a35 8a3b
00000220: 88da 343e d1a4 a7bd 4a49 aabb efc8 32bd
00000230: 0399 d8bc 0a1d 38be be7c 543e a9ae b0bd
00000240: 4b4e cebd c125 7cbe 6f14 b2bd b856 8a3e
00000250: c2bd aabd 7aa6 d63d e1c7 bf3d 049a 813c
00000260: 43a5 b03e 3553 583c c896 1e3d f5b5 353e
00000270: a09f 0abe 3b1c 5cbe dd32 a03e 24f9 a9be
00000280: 9426 f8bd 7e57 a83c 2f87 c6bd 32af 053e
00000290: 88f8 b3be e516 623e fda0 8dbd bdda 143e
000002a0: add8 963d 308a 5a3d 6fcf babe f226 e2bb
000002b0: e289 27be 7fba f0bd c37b 2f3d 27ac e4bd
000002c0: 7c2f 18be a75e b73e f579 5bbd 4db3 f9bd
000002d0: b474 433e ee3d 813d e540 633d 56cb 29bd
000002e0: 73ea 643e 8b0c ee3c cd17 10bf b262 0b3e
000002f0: b694 c8bd 8925 80bd 6e53 9e3e a066 323e
00000300: 06ae ae3d f2f3 80bd 1d06 263e 0eb4 05be
00000310: 64de 97be 5152 07bd 3242 87bd 05b4 ddbc
00000320: 654f 893e 5799 4a3e 6ccd a5bc 46ac 443e
00000330: 0b07 2f3e dbf2 76bd 1457 823e 30b5 f43d
00000340: 0d95 423e 3a45 983c 60d7 923e 765d 663e
00000350: bb52 dbbe dd08 89be c3b0 77be bc6c 5ebe
00000360: 8d5f 65bd 7707 bfbc 3031 0c3e 4e0b 9bbe
00000370: 8e80 253e 7d40 5cbd fe0a 06be 74bc 103e
00000380: 9c78 babd 3c5b 0cbd cf5d a73c 29a5 7fbe
00000390: 03c3 7fbe 6bf5 76be 2121 d5bd f8ce 0e3e
000003a0: 94a5 ce3d 4215 01be 66de ffbc 5fa8 09be
000003b0: 8862 013e da08 94bd 62d7 b8be 179d d03d
000003c0: 0543 96be 9396 693e 6578 323e bf2a 9bbe
000003d0: 1ba2 8b3e b952 48bd a1f9 db3d 251f 3bbd
000003e0: 6157 d63d b748 133e 6197 05be 3815 7c3e
000003f0: 1139 9b3c 9bc8 913d 3136 c3be c7cf 49bd
-0.27089608 0.11252253 0.24868158 0.02787129 0.055040624 -0.28266135 -0.11882076 -0.05158666
0.12226341 -0.14260297 0.0019456655 -0.014040886 -0.06836691 -0.10512252 0.112112515 0.09105312
0.1762047 -0.39085934 -0.017727919 -0.13230449 -0.23341037 -0.06112978 -0.21311688 -0.10020496
-0.07429311 -0.047662407 -0.102487184 0.076007105 -0.27797785 0.19088529 0.29151544 -0.09145973
-0.27709374 0.24856932 0.10498621 0.0125351325 0.07935496 0.06299113 -0.070114635 0.14341262
-0.1986095 -0.1459205 -0.112203635 0.07688982 0.025133546 0.17340705 -0.10189647 -0.14085339
0.23111117 -0.35192984 0.00965422 -0.08749389 -0.016187571 -0.16871919 0.11571454 0.09891073
0.06728371 -0.012537187 -0.001240128 -0.13770708 -0.008833626 -0.034655146 0.22799967 -0.051947683
0.30957714 -0.17413418 0.21335486 -0.02621323 -0.1807692 -0.02921283 0.056741454 0.055996664
-0.13509244 0.11646713 0.010261671 0.15883315 -0.085431494 -0.0021289408 0.102995016 -0.0084743425
-0.02339851 0.10685174 0.21381503 0.16467118 -0.31709024 0.076972015 -0.12080212 -0.19088383
-0.09064085 0.082272336 0.23020858 -0.0097591495 0.033706676 -0.4033375 0.050016973 -0.10869967
0.030887945 -0.061261404 -0.10154233 -0.0004277989 -0.09727877 -0.3237014 -0.21243535 0.06746792
-0.030453196 0.0498261 0.048982035 0.09576773 -0.13582882 -0.1325378 0.20501338 -0.10813342
0.13758737 0.096400276 -0.07743464 -0.112805165 -0.11721904 -0.07566808 -0.03583726 0.063485995
-0.14198625 0.06603921 0.10980343 0.21411525 0.0039688842 -0.13682485 0.110216275 0.1160248
0.0015795429 -0.13344339 -0.23628119 0.34451693 0.23842764 -0.13612553 0.0038583537 0.004217756
0.17661488 -0.08185733 -0.005196725 -0.043648656 -0.02644015 -0.17979828 0.2075071 -0.08627064
-0.10073527 -0.24623777 -0.08695304 0.27019286 -0.08336975 0.10480972 0.09364296 0.01582051
0.34501085 0.013203432 0.038718015 0.17745192 -0.13537455 -0.21495144 0.31288806 -0.33197892
-0.12116733 0.020549532 -0.09693753 0.13055113 -0.35150552 0.22079046 -0.06915472 0.14536567
0.073655464 0.053354442 -0.36486384 -0.0069016153 -0.16361192 -0.11754321 0.042842638 -0.11165648
-0.14861864 0.35814402 -0.053583104 -0.12192402 0.19087487 0.0631064 0.05548181 -0.041453682
0.2235506 0.029058715 -0.5628632 0.13611868 -0.09793989 -0.06257159 0.30923027 0.17421961
0.08529286 -0.06296529 0.1621327 -0.13056967 -0.29661858 -0.033037487 -0.06604423 -0.027063379
0.26818386 0.19785057 -0.020239554 0.19206342 0.1709253 -0.0602902 0.2545706 0.11948621
0.19002171 0.018587697 0.28679943 0.2249659 -0.42836556 -0.26764575 -0.24188523 -0.21721166
-0.055999327 -0.02331899 0.13690639 -0.30282062 0.16162321 -0.05377244 -0.1309013 0.14134389
-0.09105036 -0.034266695 0.020430474 -0.24965347 -0.24976735 -0.24117057 -0.104067095 0.1394614
0.10090175 -0.12605765 -0.031233978 -0.13443135 0.12635243 -0.07228251 -0.36101824 0.101862125
-0.29348007 0.22811346 0.1742874 -0.3030605 0.27272114 -0.048907015 0.10740972 -0.045684
0.10465885 0.14383207 -0.13046028 0.2461747 0.01894811 0.071183406 -0.38127282 -0.049270418

StatefulPartitionedCall/sequential_1/dense_1/BiasAdd/ReadVariableOp:0 f4 [128]
00000000: 281e 9abd eb9c 16bd ec7c 6d3d 5569 d5bd
00000010: 264b 5b3d 3c5d b9bc ec7b 18bd b3c3 febc
00000020: 5bee 8ebd 299e e2bc f3b8 94bd dc0e 86bd
00000030: 7362 7ebd ba7c 00be 5552 763b fbf4 17bd
00000040: cd80 463d ace5 d33d 6fbc 07bd 34f2 833d
00000050: f850 4bbc 2784 dc3c ceba 1cbb 8ca8 123d
00000060: 9d90 3f3d 9edc 003e a0cd 07bd cc95 e2bc
00000070: b90f 2c3d f1da a13d 2c56 3c3c 2bc1 45bc
00000080: a93d 3abd 4118 83bd 7b17 7b3d 0a44 8a3c
00000090: ebc5 80bc cb43 1bbd b17c 7dbd 5790 293d
000000a0: 3d56 e5bc 3ad7 823c 692e ad3d 293a e2bc
000000b0: 158c 1839 8278 5c3c b4f7 58bd f4d0 40bd
000000c0: 2f60 96bc 8616 843b 1cbe d2bc 23e9 503d
000000d0: 19a5 22bd 2ae8 cdbc 6023 46bc e148 d93c
000000e0: 1979 853d c9b5 a2bc dcc7 9ebd 6a03 4f3d
000000f0: 15de 76bc 5626 9f3d 158b 9e3c 0000 0000
00000100: 853d 9cbd 7616 b03c 6811 42bd 9c7f 45bd
00000110: 722f a03b 97ea b53c 6bec 59bd c62a 3cbd
00000120: e879 363d 7f1c 053d 46e3 e63b 4145 01bd
00000130: dab2 fd3c bff0 b3bd 0a6a 22bd 48eb 5ebd
00000140: 93fc 78bc 75a3 ca3c aed4 1dbd 4eb8 55bd
00000150: eb9d e6bd 9312 893c f1a7 f03b 359e 56bd
00000160: 0ca1 8abd 372a b8bc 162e cbbd 0e0d 593d
00000170: 5184 74bc 336d 7cbd 2644 fdbc ad20 f23c
00000180: b096 8bbc 8c38 01bc bf4f c1bd 7bb8 0f3a
00000190: 4431 9fbc 6824 3bbc 6e34 063e 84ce df3c
000001a0: 2b6d a33c aa82 b6bc f8cf f53c 5a8b 123d
000001b0: cbae 00be 8a3a e83d b5f3 3bbc aa27 833d
000001c0: 007b 1cbd dfb8 9dbd e948 533d ea7e 07b9
000001d0: 8d83 0cbc 3ba1 6a3d c026 2f3d 7359 d6bc
000001e0: c8f7 0c3c 760e f53b 012d 563b 6d28 95bd
000001f0: dd02 003c cc01 f23b 01b7 e2bc 6a33 b53d
-0.07525283 -0.036770742 0.057980463 -0.10420481 0.053538464 -0.022627465 -0.037227556 -0.031099176
-0.069790564 -0.027663307 -0.07261839 -0.06545803 -0.062105607 -0.1254758 0.0037585695 -0.037098866
0.048462678 0.10346541 -0.03313869 0.06442681 -0.012409441 0.026918484 -0.0023915055 0.03580527
0.046768773 0.12584159 -0.033155084 -0.02765932 0.04200718 0.07903088 0.011495154 -0.012069981
-0.04546896 -0.064011104 0.06130169 0.016878147 -0.015719375 -0.03790645 -0.061886493 0.04139742
-0.027995223 0.015971769 0.08456118 -0.027615624 0.00014548034 0.013456466 -0.052970603 -0.047074273
-0.01835641 0.0040310053 -0.025725417 0.051003587 -0.03970823 -0.025135119 -0.012093395 0.02652401
0.06517238 -0.019862073 -0.07752964 0.050540365 -0.015067597 0.07770984 0.019353429 0.0
-0.076289214 0.021495085 -0.04737988 -0.0482174 0.0048884684 0.022206588 -0.05320398 -0.04593923
0.044549853 0.03249788 0.007046136 -0.031560186 0.030969072 -0.08786153 -0.039651908 -0.0544236
-0.015196937 0.024736146 -0.038532905 -0.05217772 -0.11260589 0.01673249 0.007344239 -0.05239697
-0.067689985 -0.022481067 -0.099208996 0.052990966 -0.014924125 -0.061627578 -0.030916285 0.029556597
-0.017039627 -0.007887017 -0.094390385 0.0005482507 -0.019432671 -0.011422254 0.13105938 0.027320154
0.019949516 -0.022279102 0.030006394 0.035777427 -0.12566678 0.113392904 -0.0114716785 0.0640405
-0.03820324 -0.07701277 0.051583204 -0.00012921882 -0.008576286 0.057282668 0.042761564 -0.0261657
0.0086039975 0.0074785305 0.0032680633 -0.07283101 0.007813183 0.007385468 -0.027675154 0.08847697
